model.onnx (onnx, 204210 bytes, 4 tensors)

fc1.weight f4 [64, 784]
000000 9a 07 d6 bc 61 af db 3c 83 09 e9 3c 25 b4 a2 bc
       -0.026126672 0.026817026 0.028446918 -0.01986129
000010 2b 09 11 bd 01 08 64 bb 3c 36 90 bc 0c 49 04 3d
       -0.035409134 -0.003479481 -0.017603986 0.032296225
000020 7c 45 c4 3c b7 ef d6 3c ac 76 df 3c d3 e6 98 bb
       0.023958914 0.026237352 0.027278267 -0.0046661883
000030 0a e5 00 3e 32 28 f7 3d be 92 d8 3c f0 02 06 3d
       0.12587371 0.120682135 0.02643716 0.032717645
000040 8e 6a 96 bc 0e 19 4a bc 87 90 80 3c 3e 1c d2 3c
       -0.018361356 -0.012335075 0.015693916 0.025648233
000050 1c f4 f7 bb 2a 1b f7 bc 4a 0e 4b 3a 68 1c de bc
       -0.007566942 -0.03016432 0.00077459647 -0.027113155
000060 57 39 98 bc 85 f9 48 3c 8a 38 1c bc fe 57 ae bc
       -0.01858203 0.012266521 -0.009534964 -0.021282192
000070 85 64 f8 bc 91 e7 f1 3c 2a bf 5c 3c 40 f9 9a bc
       -0.030321369 0.029529365 0.013473311 -0.01891768
000080 5d 6f 1c 3d de 27 a6 3c c2 3e ee 3d 44 e0 dc 3d
       0.03819214 0.020282682 0.11633064 0.10784963
000090 be d4 e0 3d 4a 96 3c 3e 0d 46 2a 3e 4c 92 26 3e
       0.10978077 0.18416706 0.16628285 0.16266745
0000a0 71 0b 1d 3e d3 95 1b 3e bb b3 94 bd 31 66 b5 3c
       0.15336396 0.15193872 -0.07260843 0.022143455
0000b0 47 95 68 3e 3e 0b 95 3e d4 b2 4e 3e a6 19 e7 3d
       0.22713195 0.2911014 0.20185405 0.11284189
0000c0 5e 72 7a 3e 0c 69 e1 3d 90 c7 c5 3d 34 5b dc 3d
       0.2445769 0.11006364 0.09657204 0.10759583
0000d0 a5 6a 97 bb dc 90 7d 3b 1c 42 06 bd ca bc 41 3c
       -0.0046208673 0.003869108 -0.03277789 0.011824796
0000e0 e3 a1 af bc da ed 88 bc 13 8d f3 3d 31 b5 66 3d
       -0.021439498 -0.016714979 0.11892142 0.05632514
0000f0 21 0e e8 3d 4f 3b 27 3d 3e cf 13 3e 06 75 13 3e
       0.1133082 0.040828045 0.14434525 0.1440011
000100 fa 26 5e 3e 56 8c 45 3e 7f 92 1f 3e 42 55 8f 3e
       0.21694556 0.19291815 0.15583228 0.27994734
000110 f9 3c bb 3d be ed cb bd d0 52 a3 bd 61 28 5f bd
       0.09142489 -0.09957455 -0.079747796 -0.054481868
000120 04 be 98 bc 14 bb d5 3d e7 d9 bb 3d eb f1 3f 3d
       -0.018645294 0.10436073 0.09172421 0.04686157
000130 78 67 85 3d cb 7b f1 3d c9 fe 38 3e f9 ed 76 3e
       0.06513876 0.1179119 0.18065943 0.24114217
000140 b0 17 92 3d 4b 9d 4c b9 35 e6 cd bc 01 23 ca 3b
       0.07133424 -0.00019513552 -0.025134185 0.0061687236
000150 e4 a8 0e bd 81 09 f4 3b 91 1b 49 bd 9c da 0f 3e
       -0.034829035 0.007447422 -0.049098555 0.14048237
000160 1b 44 51 3e ca 44 66 3d d1 a5 0e 3e b3 be ba 3d
       0.20436136 0.056217946 0.13930441 0.09118404
000170 b1 83 ee bc 5e fb 16 3d 4c 6e 76 bb c8 d0 da 3d
       -0.02911553 0.036860816 -0.0037602363 0.10684353
000180 1c 36 af 3c 10 e7 85 3b 2c 8c f8 3d 03 ee 5d 3d
       0.021388106 0.0040863827 0.12136111 0.054182064
000190 3e 97 76 3d df f2 62 3a f5 4a 87 3d 1b 4f c6 3d
       0.06020283 0.00086574064 0.06606094 0.09683057
0001a0 a4 eb 39 3d b1 46 10 3e 37 13 e4 3d 1c b8 cd 3c
       0.04539074 0.14089467 0.111364774 0.025112204
0001b0 2e f1 8d 3d f9 ab 5f 3d 6e 29 30 3e 4e bc de bc
       0.06930767 0.054607365 0.17203304 -0.0271894
0001c0 e5 eb 34 3c b5 32 c3 bb 64 2e 28 be fe c5 ea bd
       0.01104257 -0.0059569725 -0.16423947 -0.11463545
0001d0 1c 5b b8 bd fd e5 d2 bd 3b a4 11 bd e9 7e 91 bd
       -0.09001753 -0.10297773 -0.035557013 -0.07104284
0001e0 1e 3a f9 bd bb 77 12 be 82 2c 72 bd 58 90 f3 bc
       -0.12169288 -0.14303486 -0.059124477 -0.029731914
0001f0 02 47 40 bd 6d 7b 77 bd 61 0c 1c bb b0 fc df 3a
       -0.04694272 -0.060420442 -0.002381109 0.0017088857
000200 73 1f 07 3c d5 69 09 3d e7 08 f2 3c a6 b3 56 3b
       0.008247244 0.033548195 0.02954526 0.0032760887
000210 fc 28 ed 3c f0 71 98 bc 38 70 0a 3d d9 9b de 3d
       0.028950207 -0.018609017 0.033798426 0.10869569
000220 b1 0a 01 3e f7 6a 07 3e ee 92 15 3e 36 e1 89 3d
       0.12601735 0.13224398 0.1460683 0.06732409
000230 9f e3 01 bd 35 58 08 3d 61 f6 c8 bd 1b dd 8c bd
       -0.031711217 0.033287246 -0.09812618 -0.0687811
000240 f2 6f f3 bd a1 e2 26 be f0 ca 2f be e7 08 d6 bd
       -0.11886586 -0.1629739 -0.17167258 -0.10450917
000250 da 90 26 3d f4 65 10 3d b3 06 59 3d f5 2a 02 3e
       0.040665485 0.03525348 0.052984904 0.127117
000260 34 76 09 3d a8 4b 79 3d c7 97 1f 3c b6 cf d7 3c
       0.033559993 0.060863167 0.009740776 0.026344161
000270 94 87 1b 3e a0 bd d8 3d 30 a4 da 3d cf d8 23 3d
       0.15188438 0.10583043 0.106758475 0.040001687
000280 30 65 17 3e 04 a8 d3 3c bc 35 35 3d b7 ca d2 3d
       0.14784694 0.025836952 0.0442407 0.10292571
000290 34 97 2a 3e d7 ec 7e 3e 8c c7 20 3e 6b cf 0b 3e
       0.16659242 0.24895035 0.15701121 0.13653342
0002a0 37 e5 a2 3b bf bd 7c bd 3d c7 a4 3d de ed 12 bd
       0.004971172 -0.061704393 0.08045814 -0.03587138
0002b0 a1 04 7f bd 23 dd 4c bd f0 a4 e6 bd ef 33 ad 3c
       -0.062260274 -0.05001558 -0.11261928 0.021142928
0002c0 10 4a a6 3c 13 89 dd 3c 0e 65 e7 3c 2b 09 6e bb
       0.020298988 0.027042901 0.028246429 -0.0036321383
0002d0 ad 54 dd bb 9e 22 f5 b9 9a 39 75 3d 0d 87 cb 3d
       -0.006754479 -0.00046755833 0.059869386 0.09937868
0002e0 52 12 1c 3e 86 e8 da 3d f7 38 9f 3d a0 5d 56 3e
       0.15241364 0.106888816 0.07774537 0.20934153
0002f0 e0 d9 2f 3e 30 60 d9 3d 6d 85 ce 3d 50 5c 6f 3d
       0.17172956 0.106140494 0.10084043 0.058437645
000300 62 e0 a2 3e ca 39 b7 3e 5c c5 3d 3e 8d 79 99 3d
       0.31811816 0.35786277 0.18532318 0.07493887
000310 cb b0 3a 3d 13 24 2e bd 08 c6 c2 3d 68 01 1f bd
       0.04557876 -0.04251487 0.09510428 -0.0388197
000320 a4 3a e4 bd 04 f7 71 3c 08 36 2f 3d 01 2a 7d 3c
       -0.11143997 0.014768366 0.042776138 0.015451909
000330 bf 89 1a 3e 09 35 0b 3d 29 17 2d 3d 4d a5 41 3d
       0.15091608 0.033986125 0.042258415 0.047276784
000340 1c e4 3f bd 15 98 11 bd d3 ca a5 bc 5d 53 b8 3b
       -0.0468484 -0.035545427 -0.020238316 0.005625172
000350 94 e0 7f 3d 8a 68 ad 3d 7b 46 11 3e 68 a8 15 3e
       0.062470034 0.08467205 0.14187042 0.14615023
000360 0e 0b 36 3e 38 6e 2b 3e 71 a9 a5 3c 80 f2 2b 3c
       0.17777655 0.16741264 0.020222398 0.010494828
000370 1c 82 33 3e ea 1d 65 3e 7a a8 b6 3d c5 c5 25 3d
       0.17530102 0.22374693 0.08918853 0.04047181
000380 8b 69 08 bd 8d 03 8a 3d a0 27 4e 3d b4 96 22 be
       -0.03330378 0.067389585 0.050330758 -0.15877801
000390 35 39 81 bd 1c 85 50 bd 06 d1 6e 3d 79 ec 19 3d
       -0.063097395 -0.050908193 0.05830481 0.037579034
0003a0 3b 51 5e 3d 5f a2 bf bd ae 00 0c bc f2 64 72 3d
       0.054276686 -0.09357142 -0.008545084 0.0591783
0003b0 aa 5c af bd ba 3e e7 bd a4 a2 8a bd d3 d3 94 bd
       -0.08562596 -0.11291261 -0.067693025 -0.07266965
0003c0 62 55 29 bd b0 57 2f bb 86 02 58 bd 5d 93 be 3d
       -0.041341193 -0.0026755147 -0.05273678 0.09305451
0003d0 d2 37 d6 3d a9 2f 87 3d 09 07 33 bd 8f 17 d6 bc
       0.10459866 0.06600887 -0.04370788 -0.02613428
0003e0 da e0 88 bb f9 d1 a6 bd 18 3c 56 bd f2 6f 46 bd
       -0.004177195 -0.08145518 -0.052303404 -0.048446603
0003f0 20 9b 38 3d 2f d4 2a 3d 2f 4d e4 3d 8c fe 56 bd
       0.045069814 0.04170626 0.11147534 -0.05248885

fc1.bias f4 [64]
000000 ed 0b 21 3e ce 48 51 3e 71 a0 b8 bd f8 f0 a5 bd
       0.15727206 0.20437929 -0.09014977 -0.08102602
000010 30 05 6e 3e 8e 57 53 3e 07 ff bf 3d 8e f1 ae bd
       0.23244166 0.20638868 0.093748145 -0.08542167
000020 4b f8 63 3e f5 b7 b0 3c 84 60 9e 3c 14 c7 da bb
       0.22262685 0.021572093 0.019333132 -0.006676564
000030 59 6f 40 3e 99 ad 48 3e 10 05 e0 3c db 09 f3 bd
       0.18792476 0.19597472 0.027346164 -0.11867114
000040 16 95 0e bd 15 a4 16 bd be 75 b0 3d 4f 13 a5 3e
       -0.03481015 -0.036777575 0.086162075 0.32241294
000050 90 48 c7 bc 68 2e a7 bc 30 c8 ad 3e db 3c 62 be
       -0.024326593 -0.02040787 0.33941793 -0.22093527
000060 3f 26 6b 3e af a9 e0 bc d8 20 86 3d 56 83 64 3b
       0.22963808 -0.027424661 0.06549233 0.0034868321
000070 f5 df b1 3c cc 03 51 3d 39 3b 91 3e e3 41 b9 bd
       0.021713236 0.05102901 0.28365496 -0.0904577
000080 f4 65 55 be b2 bf 4c 3e 4b 24 42 3d b3 ff 3e 3e
       -0.20839673 0.19995001 0.047397893 0.18652229
000090 0c a3 97 bd 2e 20 a7 3d e6 a7 9f 3d cc 57 d6 bd
       -0.074041456 0.08160435 0.07795696 -0.10465965
0000a0 15 f2 17 bd 01 f9 45 3e 26 79 fc bd f1 6f cf 3c
       -0.0370961 0.19333269 -0.12327795 0.025321933
0000b0 cd 62 87 3d 60 e9 5f 3d 6a 07 d8 3d 3e 70 be bc
       0.06610642 0.054665923 0.10548289 -0.02324688
0000c0 eb 82 f5 3c d8 6e 58 3e 20 ba fe bd cb 6d fc 3d
       0.029969653 0.21136034 -0.12437844 0.12325629
0000d0 29 ea 3c 3e 54 1a 54 bd 60 56 21 3c e8 f1 63 3e
       0.184487 -0.05178292 0.009847254 0.22260249
0000e0 94 12 1b 3d 5b bc 94 3d 9c d4 ab 3c df 97 9c 3d
       0.037859514 0.072624885 0.020975403 0.076461546
0000f0 bc b5 cf bd 16 fc cf 3c 19 72 08 bd f7 1c cf 3c
       -0.10142085 0.025388759 -0.033311937 0.025282366

fc2.weight f4 [10, 64]
000000 4f ba e4 bd 92 c8 87 be 0f eb 62 bd e1 35 1e 3e
       -0.11168348 -0.2652021 -0.05539995 0.1545024
000010 3b 36 04 3e 21 6d 25 bf 69 61 20 3e 07 11 71 3e
       0.12911312 -0.6461964 0.15662159 0.23541652
000020 22 b4 a4 3e 55 8d 4e be 56 c5 b8 be 52 53 c0 3d
       0.3216868 -0.20171101 -0.36088055 0.09390892
000030 7c 51 a2 3e b0 74 19 be aa 4c 85 3d fe fb 99 be
       0.31702793 -0.14985919 0.06508763 -0.30075067
000040 14 82 8f be e9 80 8b 3d 97 1d 1e bf 2f bb 09 3e
       -0.2802893 0.06811697 -0.617639 0.13450311
000050 97 fd 99 be 5d 18 29 be 19 6f 63 be 97 63 3d be
       -0.30076286 -0.165132 -0.22210349 -0.18495022
000060 ee 25 85 be 63 42 9c bd 39 f0 5f 3e 87 5b 3f bc
       -0.260055 -0.0762985 0.21868981 -0.011679537
000070 94 f0 7a 3e c4 7c 00 bf 0f c9 65 be 4d 2e 1a 3e
       0.24505836 -0.5019038 -0.22439979 0.15056725
000080 cf c8 c5 3d 53 60 7d be ea a0 94 3d 05 09 1a be
       0.09657442 -0.24743776 0.072572544 -0.15042503
000090 ae 77 66 3e 95 79 06 be e3 aa 4f bf 1f 95 f3 3b
       0.22506592 -0.13132317 -0.8112013 0.007433548
0000a0 4f 96 1f bf 09 7b 86 be cf 4a 29 3e ed a5 f9 bd
       -0.6233873 -0.26265743 0.16532443 -0.12189851
0000b0 97 94 2e 3e 6d 22 d8 be ba 01 10 bf 2d eb 3b 3e
       0.1704887 -0.42213765 -0.56252635 0.18351431
0000c0 6f 06 6f be 68 32 94 3e 5f 75 b4 be 9b 0e 9e 3c
       -0.23342298 0.28944707 -0.35245797 0.019294074
0000d0 71 1e 2e 3e 00 4e b8 be 4b 50 8d 3d ef d6 2d bf
       0.170038 -0.3599701 0.0690008 -0.6790609
0000e0 8f 93 2f 3e 2f c3 0d bf 07 35 77 be c5 4b cc be
       0.17146133 -0.5537595 -0.24141322 -0.39901558
0000f0 48 de da 3e 5a f6 36 3e 92 af 17 3e e8 6d ae be
       0.42747712 0.17867413 0.14813069 -0.34068227
000100 81 06 dd be 40 58 9a 3d fb 8c 1f bd 03 07 f9 3d
       -0.43169025 0.075363636 -0.03895281 0.121595405
000110 30 17 3d bd 0a 20 1f 3f 32 36 57 3d 3f c4 3d be
       -0.04616469 0.6215826 0.05254192 -0.18531893
000120 44 22 ba 3e 2f 9f a6 3e 37 a0 aa 3e d4 3d 0b bf
       0.36354268 0.32543322 0.3332536 -0.5439122
000130 e8 cc 80 bd 88 19 83 bc 2f 10 f1 be 30 1f c8 be
       -0.06289083 -0.016003385 -0.4708266 -0.39086294
000140 66 4a 34 bd eb 41 f4 bd aa ed 87 bd f4 b8 5c be
       -0.044016264 -0.11926635 -0.06637128 -0.21554929
000150 76 15 2a 3e f7 68 2e 3e 33 c5 82 3e 21 1a af 3c
       0.16609749 0.17032228 0.25541076 0.021374764
000160 65 f2 ea be 37 66 db be 08 ea b1 be 2f aa b1 3d
       -0.45888057 -0.4285142 -0.34748864 0.08675038
000170 a9 f3 a1 be 0c 1a 87 bd 55 60 80 3c 41 51 66 be
       -0.3163121 -0.06596765 0.015670935 -0.22491933
000180 cf 88 05 be d1 d1 88 be a0 d3 d3 3b b0 60 84 be
       -0.1304047 -0.26722577 0.0064644367 -0.25855017
000190 38 3e a5 be cd d9 93 3e cb b4 a8 be d7 81 2d bd
       -0.32274032 0.28877106 -0.32950434 -0.042360153
0001a0 0b c0 8c 3d 07 a5 1e 3e 47 01 3a 3e d8 9f ae be
       0.06872567 0.1549264 0.1816455 -0.34106326
0001b0 34 c8 3d 3c 82 c9 ab 3e 32 37 dd 3e 7a 3e c0 bd
       0.011583377 0.33552176 0.43206173 -0.093869165
0001c0 aa bd 5c 3e a9 5e f9 3e 76 41 12 3e 76 ab e0 3d
       0.21556726 0.48705032 0.14282784 0.109702036
0001d0 59 54 e7 be 44 26 3a be 0f 05 d0 3d c1 e0 15 3e
       -0.4518154 -0.1817866 0.10157215 0.14636518
0001e0 88 47 b4 bd ff 2b 8b 3e 85 f5 9d 3c b2 9a a5 3e
       -0.08802706 0.27182004 0.019282112 0.32344586
0001f0 9e f9 9b be 3c a8 ab be ec 38 a5 be a8 79 b0 bb
       -0.3046388 -0.3352679 -0.3226999 -0.0053855963
000200 d2 44 3f 3d f0 cd 63 3e 2a 59 41 bc e8 24 2d 3d
       0.04669649 0.22246528 -0.0118010435 0.042271525
000210 e3 02 5e bf 6b b8 2b 3e be 35 ce 3d 1f e7 7f 3e
       -0.86723155 0.16769569 0.10068844 0.2499051
000220 fc a4 6d be f1 29 1f bd e2 ad a4 3e 95 c9 8e 3d
       -0.23207468 -0.038858358 0.32163912 0.069720425
000230 65 cb a3 3e 39 76 1d be a8 15 02 be 8e 3a 87 be
       0.31991115 -0.1537713 -0.12703574 -0.2641186
000240 f5 7d 1e be b6 9d 93 3e 6b 82 df bd 23 6c c2 3e
       -0.15477736 0.2883126 -0.10913547 0.37973127
000250 31 96 ca 3d e8 68 36 3e 34 38 a9 3e 98 28 87 bd
       0.09891928 0.17813456 0.33050692 -0.065995395
000260 c6 7b f0 3d f7 e3 95 be 08 e8 67 be df 99 ec bc
       0.11742358 -0.29275486 -0.22647107 -0.028881965
000270 0b 96 c7 be 54 3e bd be 66 87 02 bf c4 47 7b 3e
       -0.3898166 -0.36961615 -0.5098785 0.24539095
000280 be d2 ea 3d 05 cd 04 bf 69 15 91 be 24 b0 cb 3b
       0.11465977 -0.51875335 -0.28336647 0.006216066
000290 0e 4d 57 3e ea c7 08 3e aa 94 16 3d 56 96 d3 3d
       0.21025488 0.13357511 0.03676287 0.10331409
0002a0 7a de ec 3d f9 60 a2 bd ab 19 1f 3e 5f 55 09 3c
       0.115658715 -0.07928652 0.15537135 0.00838217
0002b0 7a 02 82 be 70 85 78 3e f3 74 1a bf f4 02 81 bd
       -0.25392514 0.24269652 -0.603347 -0.062993914
0002c0 1b f7 ae be a3 3b 0d be b4 0f be 3d de 3c f6 3e
       -0.34172902 -0.13792281 0.09280339 0.48093313
0002d0 42 af 82 bd 76 93 05 3f 97 8d 59 bf 32 eb a5 3e
       -0.06381084 0.5217813 -0.84981674 0.32406002
0002e0 da fb 92 3d 8d da 78 3d 6c 13 42 3e c6 f4 d7 be
       0.07176943 0.0607553 0.18952721 -0.42178935
0002f0 1d 5b 6e 3e bf c1 25 3e 12 96 ac be 49 76 71 3d
       0.23276944 0.1618719 -0.33708245 0.058950696
000300 8b e5 bf bd 1f 11 e7 bb fe d5 cf bd 25 fd 13 3e
       -0.09369954 -0.0070516015 -0.10148238 0.14452036
000310 60 07 ef be 5c 09 3a bf 49 68 05 bf bc 99 67 be
       -0.46685314 -0.7267053 -0.5211225 -0.22617239
000320 83 76 ca 3d 15 5d 45 3e 87 4a 99 be e0 64 07 be
       0.098858856 0.19273789 -0.29939672 -0.13222075
000330 c2 cb ff 3d df b2 88 3a c7 80 33 be 7e 89 09 3e
       0.124900356 0.0010429284 -0.17529593 0.13431355
000340 2c 0a 82 3e 55 fb d1 3e 6f ab cd be 50 c5 55 be
       0.25398386 0.41012064 -0.40169856 -0.2087605
000350 51 17 35 3c 52 36 e5 3c d8 c8 bb be e9 3a d8 3d
       0.011052922 0.027980004 -0.3667667 0.10558111
000360 76 39 08 bd 8f 69 65 3e 4f af 5f bd c1 6a fa bd
       -0.033257924 0.22403549 -0.054610547 -0.12227393
000370 40 f4 2e be c9 98 f2 3d 25 ab be bb 2f fb b3 3d
       -0.17085361 0.11845548 -0.005818742 0.08788144
000380 e8 0a ac 3d 42 eb ce be a0 94 4d 3e d3 3f cf 3d
       0.08400518 -0.40413862 0.20076227 0.101195954
000390 bd de 35 3c 0d 55 a0 bb 2d 7d 47 3e 5e ec 95 3e
       0.011100468 -0.0048929513 0.19481345 0.29281896
0003a0 9d 32 98 3d 4d 4f 60 be 1d 1d 85 3e 27 18 df bd
       0.07431529 -0.21905251 0.25998774 -0.108932786
0003b0 4d 25 d2 be 3a c7 c9 3c 12 96 e7 3e 14 00 a4 3d
       -0.41044083 0.024631131 0.45231682 0.080078274
0003c0 29 79 dd be db cb f2 bd 29 2c 2b 3e 4d a9 70 be
       -0.432565 -0.118552886 0.16716065 -0.23502083
0003d0 25 85 bd 3d b8 a9 17 3e 8e 9e 24 3e 23 2a 01 bf
       0.09253911 0.14810836 0.16076109 -0.5045492
0003e0 bc c8 e0 3d 63 85 2d 3e 55 5d 9b bd 83 11 65 3d
       0.10975787 0.16945414 -0.07586161 0.055924904
0003f0 4e bb c7 3d f8 a6 9c 3d a1 b8 65 3c 39 d7 b4 3e
       0.097525224 0.07649034 0.01402107 0.35320452

fc2.bias f4 [10]
000000 fa f1 02 be 75 b5 03 be 17 97 97 bd 50 1e 71 be
       -0.12787619 -0.12862189 -0.07401865 -0.2354672
000010 ae cc 80 3e be ca bc 3d 1c 01 50 bd 64 75 a7 3d
       0.25156158 0.092183575 -0.050782308 0.08176687
000020 d9 cb b4 bd 7f b5 59 3d
       -0.08827943 0.053151604
