model.tflite (tflite, 205496 bytes, 4 tensors)

arith.constant f4 [10, 64]
0	0xbe814da4	-0.25254548
1	0x3dee56fd	0.116376854
2	0x3e785067	0.24249421
3	0x3dc81855	0.09770266
4	0x3ea39551	0.31949857
5	0x3e67ba2b	0.22629611
6	0x3e9334a8	0.2875111
7	0xbeaffa30	-0.34370565
8	0xbe88ba8b	-0.2670482
9	0x3e85672f	0.26055285
10	0xbecc23ef	-0.39871165
11	0x3e287357	0.16450249
12	0xbd81aaaf	-0.063313834
13	0xbc31fee7	-0.010863996
14	0x3db97558	0.09055585
15	0x3d963394	0.073340565
16	0x3eafec67	0.34360048
17	0xbe09794f	-0.13425182
18	0xbe97917e	-0.2960319
19	0xbf39a13e	-0.7251166
20	0x3ef9dd17	0.4880149
21	0x3dadc314	0.08484474
22	0xbe22805e	-0.1586928
23	0xbf5c92a8	-0.8616128
24	0x3e15f537	0.14644323
25	0x3e9cd101	0.30628207
26	0xbe909669	-0.28239754
27	0xbe0ba12f	-0.13635705
28	0x3e5038c3	0.20334153
29	0x3d344359	0.04400954
30	0xbf0fc3b1	-0.56157976
31	0x3e8e5b30	0.27803946
32	0xbda57bb4	-0.08080235
33	0x3bc70ec8	0.00607476
34	0xbdeff857	-0.11717289
35	0x3ea15e9b	0.3151749
36	0xbe6ecfc2	-0.23321441
37	0xbe946ee8	-0.28990865
38	0xbdc4edeb	-0.09615692
39	0xbeef2679	-0.4670904
40	0xbea4f006	-0.32214373
41	0x3e21a63c	0.1578607
42	0xbe677df3	-0.2260664
43	0xbecf5776	-0.40496415
44	0xbebde90a	-0.37091857
45	0x3e1c7943	0.15280633
46	0xbe820c06	-0.25399798
47	0xbe68240f	-0.22670005
48	0x3ecaed1a	0.3963402
49	0xbeafbae1	-0.34322265
50	0x3ce13c50	0.02749458
51	0xbdb56edc	-0.088590354
52	0x3e94c5a1	0.2905703
53	0x3ea4a5b4	0.3215767
54	0xbe2f5a74	-0.17124349
55	0xbf463c4b	-0.7743575
56	0x3ea3021f	0.31837556
57	0x3df77b1f	0.1208403
58	0xbe001313	-0.12507276
59	0x3915a924	0.00014272757
60	0xbdc09bdc	-0.09404728
61	0x3dfc27df	0.12312292
62	0xbd540f7b	-0.051772576
63	0xbe3102aa	-0.17286173
64	0x3d9725c4	0.0738025
65	0x3e599da9	0.21251549
66	0xbeb75d0e	-0.35813183
67	0xbe965f96	-0.293698
68	0x3ea922bd	0.33034316
69	0x3f101aa5	0.56290656
70	0xbeb6a498	-0.3567245
71	0xbe95b996	-0.29243153
72	0xbec51189	-0.3848994
73	0xbea05565	-0.3131515
74	0x3e9a146f	0.30093715
75	0xbe24a794	-0.16079551
76	0x3f1d26bc	0.6138723
77	0x3f13d0d8	0.57740545
78	0xbde8a570	-0.1135968
79	0x3c92a7f1	0.017902346
80	0xbdb3c5f8	-0.08777994
81	0xbe6442b6	-0.22291073
82	0x3ea3cb65	0.31991115
83	0x3e99ff02	0.30077368
84	0x3ea7364c	0.32658613
85	0xbebd5391	-0.3697782
86	0xbcaa137d	-0.020761246
87	0x3da70b69	0.08156473
88	0x3f165497	0.58722824
89	0xbf080b67	-0.531424
90	0x3bda2f9c	0.0066585075
91	0x3ee7802a	0.4521497
92	0x3d6a24bb	0.057163935
93	0xbeaed2f9	-0.34145334
94	0x3d4788e6	0.04871454
95	0xbda0d1ff	-0.078525536
96	0x3f3d3560	0.7390957
97	0x3c9581f1	0.018250437
98	0xbed838c0	-0.42230797
99	0xbf02e8c7	-0.5113644
100	0x3ddabe29	0.106808014
101	0x3eb1b8e6	0.3471138
102	0xbeb22f5a	-0.3480175
103	0xbe3f7f1c	-0.18700832
104	0x3ced183d	0.028942222
105	0x3ea25640	0.3170643
106	0xbec29ef0	-0.38011885
107	0x3d20e4d0	0.039280713
108	0x3dbd0dea	0.092311695
109	0xbefd8bb6	-0.49520653
110	0xbec7bb9c	-0.39010322
111	0xbf05d6d0	-0.522809
112	0xbe2f6e77	-0.17131983
113	0x3ebd052e	0.36918014
114	0xbeb328cb	-0.3499206
115	0x3ebb1c61	0.3654509
116	0xbee20076	-0.44140977
117	0xbd8b3dd6	-0.06798904
118	0x3dbacaf6	0.09120743
119	0xbef267a7	-0.47344705
120	0xbcfc92df	-0.030831752
121	0xbec648c5	-0.38727394
122	0xbe5fafa6	-0.21844348
123	0x3e374934	0.17899019
124	0x3d5ca74e	0.05387049
125	0x3e9cccac	0.30624902
126	0x3e3d4aa5	0.18485506
127	0xbe69cfaf	-0.22833131
128	0x3e02dda6	0.12779865
129	0xbe815231	-0.2525802
130	0x3e4799c0	0.19492245
131	0x3e441e95	0.19152291
132	0xbe8a503b	-0.27014336
133	0x3d94846d	0.07251821
134	0x3e2f229a	0.17103043
135	0xbd230f0e	-0.03980928
136	0xbf215c33	-0.6303131
137	0xbe6d8678	-0.23195827
138	0x3e8fd1f9	0.28089884
139	0x3e33b7f5	0.17550643
140	0xbf307c15	-0.68939334
141	0xbefd1ee4	-0.4943763
142	0x3eac0076	0.33594102
143	0x3dc015e0	0.09379172
144	0xbf177616	-0.5916456
145	0xbe8276ea	-0.2548135
146	0x3ea014bc	0.3126582
147	0xbc5af262	-0.013363453
148	0xbea315a3	-0.31852445
149	0xbf02adac	-0.5104625
150	0x3eb6c9c0	0.35700798
151	0x3ed99de4	0.42503273
152	0xbde59ee1	-0.11211944
153	0x3b8c5b90	0.004283376
154	0xbf8139c2	-1.0095751
155	0x3ce9d651	0.028544577
156	0x3e7eb383	0.24873166
157	0x3db02998	0.086016834
158	0x3f0a8124	0.541033
159	0x3c92b06e	0.017906394
160	0xbe87acfc	-0.26499164
161	0xbf3515cd	-0.7073639
162	0xbeceab86	-0.40365237
163	0x3e423e19	0.18969001
164	0x3d2f5c32	0.042812534
165	0xbe539746	-0.20663175
166	0x3eafc666	0.34331053
167	0x3e2d7b05	0.1694146
168	0x3de9b95f	0.1141231
169	0x3d69ed28	0.057110935
170	0x3e5747f2	0.21023539
171	0xbe9f2b04	-0.31087506
172	0x3dbd3dfb	0.092403375
173	0xbc65a035	-0.014015247
174	0x3e2c5e43	0.16832833
175	0x3ec7aafb	0.38997635
176	0x3f0bc181	0.5459214
177	0x3e6cab38	0.2311219
178	0xbe69a596	-0.22817072
179	0x3ee1baff	0.4408798
180	0x3daa8586	0.08326249
181	0x3e00394f	0.12521861
182	0xbe4ab2dd	-0.19794793
183	0x3d3a4ca6	0.045483254
184	0xbdada5dd	-0.084789015
185	0x3d41cc8f	0.047314223
186	0xbe90c313	-0.2827383
187	0xbf30041b	-0.68756264
188	0x3e678a14	0.22611266
189	0x3eef901e	0.4678964
190	0xbd233b4b	-0.039851468
191	0x3f1d66cc	0.6148498
192	0x3de7825e	0.113041624
193	0xbed8d1bb	-0.42347512
194	0xbf155bcf	-0.58343214
195	0x3e78da15	0.24301942
196	0xbf27f6a6	-0.6561073
197	0x3e291cc1	0.16514875
198	0x3d98953c	0.07450339
199	0xbe476595	-0.19472344
200	0x3e6c7043	0.230897
201	0x3e763481	0.24043466
202	0xbf0f7cbb	-0.560497
203	0xbe96ddd2	-0.2946611
204	0xbca194de	-0.019724306
205	0xbe2779ac	-0.16355008
206	0x3e990d18	0.29892802
207	0xbed49c48	-0.41525483
208	0x3d697970	0.057000577
209	0xbeb5b906	-0.35492724
210	0x3e519213	0.20465879
211	0x3eb36e0f	0.35044906
212	0xbe17710e	-0.1478922
213	0xbee5c3d3	-0.44875965
214	0xbf114520	-0.567461
215	0x3e17018a	0.14746681
216	0x3dc243b4	0.094855696
217	0xbc47f571	-0.012204514
218	0x3ddbf56f	0.10740172
219	0x3e4aefd7	0.19818054
220	0x3d8d98ce	0.06913911
221	0xbf007294	-0.5017483
222	0xbdbd5faa	-0.09246762
223	0xbdb59354	-0.08865991
224	0x3d1c61a0	0.03817904
225	0xbe6f619f	-0.23377083
226	0xba9e25ff	-0.0012065767
227	0xbcca316e	-0.024681773
228	0xbe40de3e	-0.18834779
229	0x3e946f38	0.28991103
230	0x3e99add1	0.30015424
231	0x3e888544	0.26664174
232	0xbeb4e5c3	-0.35331544
233	0x3e5a5f6a	0.2132546
234	0x3e501d5c	0.203237
235	0xbdc618fd	-0.09672735
236	0x3e8daead	0.2767233
237	0x3eb64513	0.35599574
238	0x3ed7e70f	0.4216847
239	0xbe010b0f	-0.12601875
240	0xbd3e8fd7	-0.046523895
241	0x3cdc897e	0.02692103
242	0xbe223dfa	-0.15843955
243	0xbf275042	-0.6535684
244	0xbf02dc5b	-0.51117486
245	0x3e9f5ed8	0.31127048
246	0x3dc2d367	0.09512978
247	0x3e9cd60b	0.30632052
248	0x3d5e80d7	0.05432209
249	0x3e8910d2	0.26770645
250	0xbe837879	-0.2567785
251	0x3dd93806	0.10606389
252	0x3e2efd37	0.17088781
253	0x3c4e6fd0	0.0125999
254	0x3e79194e	0.24326059
255	0x3f03acd2	0.5143558

arith.constant1 f4 [64, 784]
0	0xbd13bda1	-0.036069516
1	0x3c9e80cc	0.019348525
2	0xbda79744	-0.081831485
3	0xbbc0e590	-0.005886741
4	0x3d379476	0.044819318
5	0x3adf8bc0	0.0017055199
6	0xbc89a9cc	-0.016804598
7	0x3d9366dd	0.07197354
8	0x3d8bbab3	0.068227194
9	0x3cd62320	0.026139796
10	0x3d9e93a5	0.07743005
11	0x3da8cfd1	0.08242763
12	0xbd4ea406	-0.050449394
13	0xbc895ee4	-0.01676888
14	0x3db36c00	0.08760834
15	0x3c70d75a	0.014699781
16	0x3bf2ec00	0.0074133873
17	0x3d81a181	0.063296326
18	0xbbeba3d0	-0.007191159
19	0xbd3cec39	-0.046123717
20	0x3b64a080	0.0034885705
21	0xbc8fa3b4	-0.017534114
22	0xbd41f7a7	-0.04735532
23	0xbd09f73f	-0.033683058
24	0x3d0fac20	0.03507626
25	0x3c3023b8	0.0107507035
26	0x3d4ae566	0.049535178
27	0x3d60eeea	0.054915346
28	0x3d3b0306	0.04565718
29	0x3cb97da8	0.022642925
30	0xbd7c4453	-0.061588597
31	0x3d803ddf	0.06261801
32	0x3d928270	0.07153785
33	0x3c1f66c6	0.009729093
34	0x3e209395	0.15681298
35	0x3ddfbb7e	0.10924433
36	0x3e450f8e	0.19244215
37	0x3e37864a	0.17922321
38	0x3de0a8b4	0.109696776
39	0x3deb2e39	0.11483426
40	0x3de68b72	0.11257066
41	0x3e489fd0	0.19592214
42	0x3d9bcc0a	0.07607277
43	0x3dd3add2	0.10335888
44	0x3e96186e	0.29315513
45	0x3e8cecf3	0.27524528
46	0x3e3bece9	0.18352093
47	0x3e36891b	0.17825739
48	0x3e4de9e5	0.20108755
49	0x3e441346	0.19147977
50	0x3e5aa478	0.21351802
51	0x3e3d0105	0.1845742
52	0xbc686cb0	-0.014186069
53	0xbd866e8d	-0.06564055
54	0xbcb32198	-0.021866605
55	0x3cd4b5a4	0.02596552
56	0xbd21b764	-0.039481536
57	0xbce2a468	-0.027666286
58	0x3c24d4ba	0.010060484
59	0xbd10c312	-0.035342284
60	0x3e0016b0	0.12508655
61	0x3d26a7bc	0.040687308
62	0x3e44c4e6	0.19215736
63	0x3e8cd6f7	0.27507755
64	0x3eb207d6	0.34771603
65	0x3e831791	0.25603917
66	0x3ea0637a	0.31325895
67	0x3ecac35d	0.39602175
68	0x3e258636	0.16164479
69	0x3e60d881	0.2195759
70	0x3e321d9c	0.17394108
71	0x3e2dd3f4	0.16975385
72	0x3e177a91	0.14792849
73	0x3e8c1b1b	0.2736443
74	0x3eef3d27	0.46726343
75	0x3eb52e2d	0.35386792
76	0x3e9d6468	0.30740666
77	0x3e904734	0.28179324
78	0x3e61620c	0.22010058
79	0x3e717edc	0.2358355
80	0x3e102d71	0.14079835
81	0xbdaf0582	-0.085459724
82	0x3d4d7492	0.05016
83	0xbd7cd986	-0.061730884
84	0xbd80fc0c	-0.06298074
85	0x3d33394a	0.043755807
86	0xbd94867d	-0.07252214
87	0x3e380d22	0.1797376
88	0x3dd88573	0.105723284
89	0x3dfcf5c0	0.123515606
90	0x3e4a6709	0.19765867
91	0x3e5ad565	0.21370466
92	0x3ebc9574	0.36832774
93	0x3ed7729d	0.4207963
94	0x3e98aae3	0.29817876
95	0x3e39e924	0.18155342
96	0x3e9a8169	0.30176857
97	0x3e284b7c	0.16435045
98	0x3d92e6fe	0.071729645
99	0x3a2d4c8d	0.0006610833
100	0x3e27ac58	0.16374338
101	0x3e0d6b3e	0.13810441
102	0x3e65475c	0.22390503
103	0x3e33bf85	0.17553528
104	0x3dd21640	0.1025815
105	0x3e0f0ef2	0.13970545
106	0x3daf97b5	0.08573858
107	0x3d132c27	0.03593078
108	0x3e29abab	0.16569392
109	0x3d274cb5	0.040844638
110	0x3e2a85a1	0.16652538
111	0x3d960335	0.073248304
112	0xbd46b74c	-0.04851465
113	0x3d2da4bd	0.042393435
114	0xbe2d4fac	-0.16924924
115	0xbc86dcd0	-0.016462713
116	0xbca7c0c9	-0.02047767
117	0x3d8a646f	0.067574374
118	0x3e1dfa15	0.1542743
119	0x3e40dc6b	0.18834083
120	0x3e04fdd1	0.12987448
121	0x3e2b0c54	0.16703922
122	0x3e5272f0	0.20551658
123	0x3df668c9	0.12031705
124	0x3dfdcacc	0.12392196
125	0xbc57d91f	-0.013174324
126	0x3d513ca0	0.051083207
127	0x3c7f0c9e	0.015566973
128	0x3d55608a	0.05209402
129	0x3e242d96	0.16033015
130	0x3de2a9ea	0.11067565
131	0x3e1b056d	0.15138789
132	0xbbefe116	-0.0073205335
133	0x3d01ae39	0.031660292
134	0xbca22226	-0.019791674
135	0x3dd98d62	0.1062267
136	0xbd5e45a3	-0.05426563
137	0xbd57cc18	-0.052684873
138	0x3cd8c8f1	0.026463004
139	0x3e02307d	0.1271381
140	0xba280c00	-0.00064104795
141	0xbcc0ec10	-0.023550063
142	0x3ced601b	0.02897649
143	0x3e23daf1	0.16001488
144	0x3dcaf6e6	0.099103734
145	0xbd9c3e89	-0.07629115
146	0xbd8ccef6	-0.06875412
147	0x3cd0a8fd	0.025471205
148	0xbdd9677e	-0.10615443
149	0xbe080af1	-0.13285424
150	0x3bd4ee33	0.006498122
151	0xbda34463	-0.07972028
152	0xbd645a0b	-0.055749934
153	0xbe0df23b	-0.13861935
154	0xbd8ab8e1	-0.06773544
155	0xbb7117c6	-0.0036787852
156	0x3dcfb906	0.10142712
157	0x3e1e1b72	0.15440157
158	0x3cb46d32	0.022024725
159	0x3e31443c	0.17311186
160	0x3e49a93e	0.19693467
161	0x3d1a066a	0.037603773
162	0x3db5fea6	0.08886461
163	0x3d6c9a59	0.057764385
164	0x3e4257f9	0.18978871
165	0x3e59eb61	0.21281196
166	0x3e91e4f4	0.2849499
167	0x3dc74063	0.09729078
168	0xbd16ffef	-0.03686517
169	0x3c1ef5bc	0.009702142
170	0xbd80f16a	-0.06296046
171	0xbc23e40a	-0.010003099
172	0x3de3d98f	0.111254804
173	0xbdf4b25d	-0.119480826
174	0xbe1a9793	-0.15096883
175	0xbdb5cb41	-0.08876658
176	0xbd0dd4bb	-0.034626704
177	0x3d3e559a	0.046468355
178	0x3d434c0a	0.04767994
179	0xbd652947	-0.05594757
180	0x3c4a614d	0.0123523
181	0xbd09a625	-0.033605713
182	0x3d49d31f	0.049273606
183	0xbd1d234a	-0.038363732
184	0xbd37063e	-0.044683687
185	0x3cab8ac2	0.020940188
186	0x3c39519c	0.011310961
187	0x3cbe2e58	0.023215458
188	0xbd7efe1a	-0.06225405
189	0xbd9d1882	-0.0767069
190	0xbdec4cb9	-0.11538071
191	0x3dc2bb10	0.095083356
192	0x3e93bc87	0.28854772
193	0x3e437637	0.19088064
194	0x3e69b28e	0.2282202
195	0x3e818081	0.25293353
196	0xbda1d035	-0.079010405
197	0x3d5a2e55	0.053266842
198	0xbe2a88ad	-0.166537
199	0xbdcabe85	-0.0989962
200	0xbdbe8278	-0.09302229
201	0xbd4ea4d1	-0.05045015
202	0xbe6bf254	-0.2304166
203	0xbe036fde	-0.12835643
204	0x3d921125	0.07132176
205	0xbdbfd1ea	-0.0936621
206	0xbd4774bd	-0.048695315
207	0x3b1c0a9e	0.002381004
208	0xbd3ff53a	-0.046864726
209	0xbd22b9a5	-0.039727826
210	0x3e34331f	0.17597626
211	0x3d9c3b7a	0.07628532
212	0xbd12cb68	-0.035838515
213	0xbdf45a9b	-0.11931344
214	0xbd84f781	-0.0649252
215	0xbde8a0e2	-0.11358811
216	0xbd7a2517	-0.061070528
217	0xbd58fea4	-0.05297722
218	0xbd0f1554	-0.03493245
219	0xbe0de3aa	-0.13856378
220	0xbd807625	-0.06272534
221	0x3e18cf5d	0.14922853
222	0x3e03a637	0.12856375
223	0x3dfc7412	0.12326826
224	0xbdeb9dd6	-0.11504714
225	0x3bd21669	0.006411363
226	0xbe8ade2d	-0.27122632
227	0xbda9155c	-0.08256027
228	0xbda7df83	-0.08196928
229	0xbe0ea760	-0.13931036
230	0xbe16c7ea	-0.14724699
231	0xbd876496	-0.06610982
232	0xbcd12791	-0.025531562
233	0xbd768f00	-0.06019497
234	0xbd39297c	-0.04520558
235	0xbcff0bd8	-0.031133577
236	0xbd801a89	-0.06255061
237	0x3de74e69	0.112942524
238	0x3d07797e	0.03307485
239	0xbdbbbd3d	-0.09166954
240	0xbd9ad7be	-0.07560681
241	0xbc84fcfc	-0.016233914
242	0xbdb158db	-0.08659526
243	0xbe06ef0a	-0.13177124
244	0xbd9767bd	-0.073928334
245	0x3cc23ea1	0.023711504
246	0xbd988198	-0.07446593
247	0xbcd7f651	-0.02636257
248	0xbe0e8ab6	-0.13920102
249	0xbe1b358f	-0.1515715
250	0xbdef45d5	-0.11683241
251	0x3d7fae82	0.062422283
252	0xbcf69a4e	-0.030102875
253	0xbd774614	-0.060369566
254	0xbe124ae5	-0.14286382
255	0xbda857a5	-0.08219842

arith.constant2 f4 [64]
0	0x3dadce7d	0.0848665
1	0xbc497cc1	-0.01229781
2	0x3cd72d16	0.026266616
3	0xbe13f745	-0.14449795
4	0x3e430130	0.19043422
5	0xbc9f6f5d	-0.019462282
6	0x3daa0aa2	0.08302809
7	0x3d580c87	0.052746322
8	0x3d39530b	0.04524521
9	0xbe205f99	-0.15661468
10	0x3d790f26	0.060805462
11	0x3dbf13eb	0.09329971
12	0x3e2498d0	0.16073918
13	0x3d44e639	0.04807112
14	0xbb85a19d	-0.0040781037
15	0x3aa6e382	0.0012732598
16	0xb98fa9eb	-0.00027401684
17	0x3ea0da03	0.3141633
18	0xbdb88a70	-0.0901078
19	0x3d375800	0.044761658
20	0xbd7e7bc4	-0.06212975
21	0x3d9da14d	0.07696781
22	0x3e380861	0.17971946
23	0x3d9bbd18	0.07604426
24	0xbd805c9b	-0.06267663
25	0xbc5d8f61	-0.013522954
26	0x3dd2b1a7	0.10287791
27	0xbc3c3068	-0.01148615
28	0xbd931bb0	-0.07183015
29	0x3d62b7bf	0.055351015
30	0xbd434e55	-0.047682125
31	0x3d5a4f4f	0.05329829
32	0x3def47f0	0.11683643
33	0x3e180d66	0.14848861
34	0xbc4c8105	-0.0124819325
35	0xbdbedf89	-0.0931998
36	0xbcea668a	-0.028613348
37	0xbd1a4359	-0.037661884
38	0xbe18098b	-0.1484739
39	0x3db58182	0.08862592
40	0x3dbb1d55	0.09136454
41	0xbdf3b7ab	-0.11900266
42	0x3c5f3961	0.01362452
43	0x3e0fe786	0.14053163
44	0x3daa9982	0.083300605
45	0x3c8be181	0.017075302
46	0x3d7d0d15	0.061780054
47	0x3e11035a	0.14161435
48	0x3cb4c6bb	0.022067418
49	0x3de8e20e	0.113712415
50	0x3da5380f	0.08067333
51	0x3d6bcdf5	0.057569463
52	0x3e7684bd	0.24074073
53	0x3d40f601	0.047109608
54	0xbe0aab80	-0.13541985
55	0x3e841c05	0.25802627
56	0xbde0e894	-0.10981861
57	0xbe45cd9a	-0.19316712
58	0x3e32d85d	0.17465349
59	0x3dd8bbd6	0.10582702
60	0x3dd0260d	0.101635076
61	0xbceaaea1	-0.028647723
62	0xbe438e1f	-0.19097184
63	0x3d04d57f	0.03243017

arith.constant3 f4 [10]
0	0xbdf9bdbf	-0.12194394
1	0x3c0998c9	0.008398243
2	0xbbb1b4c5	-0.0054231607
3	0xbe2cfdf8	-0.16893756
4	0x3e1ab50a	0.15108123
5	0x3e81061f	0.25199983
6	0xbdc34eef	-0.0953654
7	0xbd9cf6fd	-0.07664297
8	0x3c4942a6	0.012283957
9	0xbca2ec30	-0.019888014
